name: "ResNet-50"
layer {
  name: "data1"
  type: "MultiImageData"
  top: "data1"
  top: "label"
  include {
    phase: TRAIN
  }
  transform_param {
    mirror: true
    # crop_size: 227
    mean_value: 104
    mean_value: 117
    mean_value: 123
  }
  multiimage_data_param {
    root_folder: "./../../data/RAP_dataset/"
    # root_folder: "/mnt/data1/lidw/dataset/RAP2/images-pedestrian-orignal/"
    source: "./../static/images-list-parts/rap2_trainval_2.txt"
    shuffle: false
    batch_size: 8 
    new_height: 224
    new_width: 224
  }
}
layer {
  name: "data2"
  type: "MultiImageData"
  top: "data2"
  top: "label2"
  include {
    phase: TRAIN
  }
  transform_param {
    mirror: true
    # crop_size: 227
    mean_value: 104
    mean_value: 117
    mean_value: 123
  }
  multiimage_data_param {
    root_folder: "./../../data/RAP_dataset_hs/"
    # root_folder: "/mnt/data1/lidw/dataset/RAP2/images-pedestrian-hs/"
    source: "./../static/images-list-parts/rap2_trainval_2.txt"
    shuffle: false
    batch_size: 8
    new_height: 224
    new_width: 224
  }
}
layer {
  name: "data3"
  type: "MultiImageData"
  top: "data3"
  top: "label3"
  include {
    phase: TRAIN
  }
  transform_param {
    mirror: true
    # crop_size: 227
    mean_value: 104
    mean_value: 117
    mean_value: 123
  }
  multiimage_data_param {
    root_folder: "./../../data/RAP_dataset_ub/"
    # root_folder: "/mnt/data1/lidw/dataset/RAP2/images-pedestrian-ub/"
    source: "./../static/images-list-parts/rap2_trainval_2.txt"
    shuffle: false
    batch_size: 8
    new_height: 224
    new_width: 224
  }
}
layer {
  name: "data4"
  type: "MultiImageData"
  top: "data4"
  top: "label4"
  include {
    phase: TRAIN
  }
  transform_param {
    mirror: true
    # crop_size: 227
    mean_value: 104
    mean_value: 117
    mean_value: 123
  }
  multiimage_data_param {
    root_folder: "./../../data/RAP_dataset_lb/"
    # root_folder: "/mnt/data1/lidw/dataset/RAP2/images-pedestrian-lb/"
    source: "./../static/images-list-parts/rap2_trainval_2.txt"
    shuffle: false
    batch_size: 8
    new_height: 224
    new_width: 224
  }
}
layer {
  name: "data"
  type: "Concat"
  bottom: "data1"
  bottom: "data2"
  bottom: "data3"
  bottom: "data4"
  top: "data"
  concat_param {
    axis: 0
  }
}
layer {
  name: "silence_label2"
  type: "Silence"
  bottom: "label2"
}
layer {
  name: "silence_label3"
  type: "Silence"
  bottom: "label3"
}
layer {
  name: "silence_label4"
  type: "Silence"
  bottom: "label4"
}

layer {
    bottom: "data"
    top: "conv1"
    name: "conv1"
    type: "Convolution"
    convolution_param {
        num_output: 64
        kernel_size: 7
        pad: 3
        stride: 2
    }
}

layer {
    bottom: "conv1"
    top: "conv1"
    name: "bn_conv1"
    type: "BatchNorm"
    batch_norm_param {
        use_global_stats: false
    }
}

layer {
    bottom: "conv1"
    top: "conv1"
    name: "scale_conv1"
    type: "Scale"
    scale_param {
        bias_term: true
    }
}

layer {
    bottom: "conv1"
    top: "conv1"
    name: "conv1_relu"
    type: "ReLU"
}

layer {
    bottom: "conv1"
    top: "pool1"
    name: "pool1"
    type: "Pooling"
    pooling_param {
        kernel_size: 3
        stride: 2
        pool: MAX
    }
}

layer {
    bottom: "pool1"
    top: "res2a_branch1"
    name: "res2a_branch1"
    type: "Convolution"
    convolution_param {
        num_output: 256
        kernel_size: 1
        pad: 0
        stride: 1
        bias_term: false
    }
}

layer {
    bottom: "res2a_branch1"
    top: "res2a_branch1"
    name: "bn2a_branch1"
    type: "BatchNorm"
    batch_norm_param {
        use_global_stats: false
    }
}

layer {
    bottom: "res2a_branch1"
    top: "res2a_branch1"
    name: "scale2a_branch1"
    type: "Scale"
    scale_param {
        bias_term: true
    }
}

layer {
    bottom: "pool1"
    top: "res2a_branch2a"
    name: "res2a_branch2a"
    type: "Convolution"
    convolution_param {
        num_output: 64
        kernel_size: 1
        pad: 0
        stride: 1
        bias_term: false
    }
}

layer {
    bottom: "res2a_branch2a"
    top: "res2a_branch2a"
    name: "bn2a_branch2a"
    type: "BatchNorm"
    batch_norm_param {
        use_global_stats: false
    }
}

layer {
    bottom: "res2a_branch2a"
    top: "res2a_branch2a"
    name: "scale2a_branch2a"
    type: "Scale"
    scale_param {
        bias_term: true
    }
}

layer {
    bottom: "res2a_branch2a"
    top: "res2a_branch2a"
    name: "res2a_branch2a_relu"
    type: "ReLU"
}

layer {
    bottom: "res2a_branch2a"
    top: "res2a_branch2b"
    name: "res2a_branch2b"
    type: "Convolution"
    convolution_param {
        num_output: 64
        kernel_size: 3
        pad: 1
        stride: 1
        bias_term: false
    }
}

layer {
    bottom: "res2a_branch2b"
    top: "res2a_branch2b"
    name: "bn2a_branch2b"
    type: "BatchNorm"
    batch_norm_param {
        use_global_stats: false
    }
}

layer {
    bottom: "res2a_branch2b"
    top: "res2a_branch2b"
    name: "scale2a_branch2b"
    type: "Scale"
    scale_param {
        bias_term: true
    }
}

layer {
    bottom: "res2a_branch2b"
    top: "res2a_branch2b"
    name: "res2a_branch2b_relu"
    type: "ReLU"
}

layer {
    bottom: "res2a_branch2b"
    top: "res2a_branch2c"
    name: "res2a_branch2c"
    type: "Convolution"
    convolution_param {
        num_output: 256
        kernel_size: 1
        pad: 0
        stride: 1
        bias_term: false
    }
}

layer {
    bottom: "res2a_branch2c"
    top: "res2a_branch2c"
    name: "bn2a_branch2c"
    type: "BatchNorm"
    batch_norm_param {
        use_global_stats: false
    }
}

layer {
    bottom: "res2a_branch2c"
    top: "res2a_branch2c"
    name: "scale2a_branch2c"
    type: "Scale"
    scale_param {
        bias_term: true
    }
}

layer {
    bottom: "res2a_branch1"
    bottom: "res2a_branch2c"
    top: "res2a"
    name: "res2a"
    type: "Eltwise"
}

layer {
    bottom: "res2a"
    top: "res2a"
    name: "res2a_relu"
    type: "ReLU"
}

layer {
    bottom: "res2a"
    top: "res2b_branch2a"
    name: "res2b_branch2a"
    type: "Convolution"
    convolution_param {
        num_output: 64
        kernel_size: 1
        pad: 0
        stride: 1
        bias_term: false
    }
}

layer {
    bottom: "res2b_branch2a"
    top: "res2b_branch2a"
    name: "bn2b_branch2a"
    type: "BatchNorm"
    batch_norm_param {
        use_global_stats: false
    }
}

layer {
    bottom: "res2b_branch2a"
    top: "res2b_branch2a"
    name: "scale2b_branch2a"
    type: "Scale"
    scale_param {
        bias_term: true
    }
}

layer {
    bottom: "res2b_branch2a"
    top: "res2b_branch2a"
    name: "res2b_branch2a_relu"
    type: "ReLU"
}

layer {
    bottom: "res2b_branch2a"
    top: "res2b_branch2b"
    name: "res2b_branch2b"
    type: "Convolution"
    convolution_param {
        num_output: 64
        kernel_size: 3
        pad: 1
        stride: 1
        bias_term: false
    }
}

layer {
    bottom: "res2b_branch2b"
    top: "res2b_branch2b"
    name: "bn2b_branch2b"
    type: "BatchNorm"
    batch_norm_param {
        use_global_stats: false
    }
}

layer {
    bottom: "res2b_branch2b"
    top: "res2b_branch2b"
    name: "scale2b_branch2b"
    type: "Scale"
    scale_param {
        bias_term: true
    }
}

layer {
    bottom: "res2b_branch2b"
    top: "res2b_branch2b"
    name: "res2b_branch2b_relu"
    type: "ReLU"
}

layer {
    bottom: "res2b_branch2b"
    top: "res2b_branch2c"
    name: "res2b_branch2c"
    type: "Convolution"
    convolution_param {
        num_output: 256
        kernel_size: 1
        pad: 0
        stride: 1
        bias_term: false
    }
}

layer {
    bottom: "res2b_branch2c"
    top: "res2b_branch2c"
    name: "bn2b_branch2c"
    type: "BatchNorm"
    batch_norm_param {
        use_global_stats: false
    }
}

layer {
    bottom: "res2b_branch2c"
    top: "res2b_branch2c"
    name: "scale2b_branch2c"
    type: "Scale"
    scale_param {
        bias_term: true
    }
}

layer {
    bottom: "res2a"
    bottom: "res2b_branch2c"
    top: "res2b"
    name: "res2b"
    type: "Eltwise"
}

layer {
    bottom: "res2b"
    top: "res2b"
    name: "res2b_relu"
    type: "ReLU"
}

layer {
    bottom: "res2b"
    top: "res2c_branch2a"
    name: "res2c_branch2a"
    type: "Convolution"
    convolution_param {
        num_output: 64
        kernel_size: 1
        pad: 0
        stride: 1
        bias_term: false
    }
}

layer {
    bottom: "res2c_branch2a"
    top: "res2c_branch2a"
    name: "bn2c_branch2a"
    type: "BatchNorm"
    batch_norm_param {
        use_global_stats: false
    }
}

layer {
    bottom: "res2c_branch2a"
    top: "res2c_branch2a"
    name: "scale2c_branch2a"
    type: "Scale"
    scale_param {
        bias_term: true
    }
}

layer {
    bottom: "res2c_branch2a"
    top: "res2c_branch2a"
    name: "res2c_branch2a_relu"
    type: "ReLU"
}

layer {
    bottom: "res2c_branch2a"
    top: "res2c_branch2b"
    name: "res2c_branch2b"
    type: "Convolution"
    convolution_param {
        num_output: 64
        kernel_size: 3
        pad: 1
        stride: 1
        bias_term: false
    }
}

layer {
    bottom: "res2c_branch2b"
    top: "res2c_branch2b"
    name: "bn2c_branch2b"
    type: "BatchNorm"
    batch_norm_param {
        use_global_stats: false
    }
}

layer {
    bottom: "res2c_branch2b"
    top: "res2c_branch2b"
    name: "scale2c_branch2b"
    type: "Scale"
    scale_param {
        bias_term: true
    }
}

layer {
    bottom: "res2c_branch2b"
    top: "res2c_branch2b"
    name: "res2c_branch2b_relu"
    type: "ReLU"
}

layer {
    bottom: "res2c_branch2b"
    top: "res2c_branch2c"
    name: "res2c_branch2c"
    type: "Convolution"
    convolution_param {
        num_output: 256
        kernel_size: 1
        pad: 0
        stride: 1
        bias_term: false
    }
}

layer {
    bottom: "res2c_branch2c"
    top: "res2c_branch2c"
    name: "bn2c_branch2c"
    type: "BatchNorm"
    batch_norm_param {
        use_global_stats: false
    }
}

layer {
    bottom: "res2c_branch2c"
    top: "res2c_branch2c"
    name: "scale2c_branch2c"
    type: "Scale"
    scale_param {
        bias_term: true
    }
}

layer {
    bottom: "res2b"
    bottom: "res2c_branch2c"
    top: "res2c"
    name: "res2c"
    type: "Eltwise"
}

layer {
    bottom: "res2c"
    top: "res2c"
    name: "res2c_relu"
    type: "ReLU"
}

layer {
    bottom: "res2c"
    top: "res3a_branch1"
    name: "res3a_branch1"
    type: "Convolution"
    convolution_param {
        num_output: 512
        kernel_size: 1
        pad: 0
        stride: 2
        bias_term: false
    }
}

layer {
    bottom: "res3a_branch1"
    top: "res3a_branch1"
    name: "bn3a_branch1"
    type: "BatchNorm"
    batch_norm_param {
        use_global_stats: false
    }
}

layer {
    bottom: "res3a_branch1"
    top: "res3a_branch1"
    name: "scale3a_branch1"
    type: "Scale"
    scale_param {
        bias_term: true
    }
}

layer {
    bottom: "res2c"
    top: "res3a_branch2a"
    name: "res3a_branch2a"
    type: "Convolution"
    convolution_param {
        num_output: 128
        kernel_size: 1
        pad: 0
        stride: 2
        bias_term: false
    }
}

layer {
    bottom: "res3a_branch2a"
    top: "res3a_branch2a"
    name: "bn3a_branch2a"
    type: "BatchNorm"
    batch_norm_param {
        use_global_stats: false
    }
}

layer {
    bottom: "res3a_branch2a"
    top: "res3a_branch2a"
    name: "scale3a_branch2a"
    type: "Scale"
    scale_param {
        bias_term: true
    }
}

layer {
    bottom: "res3a_branch2a"
    top: "res3a_branch2a"
    name: "res3a_branch2a_relu"
    type: "ReLU"
}

layer {
    bottom: "res3a_branch2a"
    top: "res3a_branch2b"
    name: "res3a_branch2b"
    type: "Convolution"
    convolution_param {
        num_output: 128
        kernel_size: 3
        pad: 1
        stride: 1
        bias_term: false
    }
}

layer {
    bottom: "res3a_branch2b"
    top: "res3a_branch2b"
    name: "bn3a_branch2b"
    type: "BatchNorm"
    batch_norm_param {
        use_global_stats: false
    }
}

layer {
    bottom: "res3a_branch2b"
    top: "res3a_branch2b"
    name: "scale3a_branch2b"
    type: "Scale"
    scale_param {
        bias_term: true
    }
}

layer {
    bottom: "res3a_branch2b"
    top: "res3a_branch2b"
    name: "res3a_branch2b_relu"
    type: "ReLU"
}

layer {
    bottom: "res3a_branch2b"
    top: "res3a_branch2c"
    name: "res3a_branch2c"
    type: "Convolution"
    convolution_param {
        num_output: 512
        kernel_size: 1
        pad: 0
        stride: 1
        bias_term: false
    }
}

layer {
    bottom: "res3a_branch2c"
    top: "res3a_branch2c"
    name: "bn3a_branch2c"
    type: "BatchNorm"
    batch_norm_param {
        use_global_stats: false
    }
}

layer {
    bottom: "res3a_branch2c"
    top: "res3a_branch2c"
    name: "scale3a_branch2c"
    type: "Scale"
    scale_param {
        bias_term: true
    }
}

layer {
    bottom: "res3a_branch1"
    bottom: "res3a_branch2c"
    top: "res3a"
    name: "res3a"
    type: "Eltwise"
}

layer {
    bottom: "res3a"
    top: "res3a"
    name: "res3a_relu"
    type: "ReLU"
}

layer {
    bottom: "res3a"
    top: "res3b_branch2a"
    name: "res3b_branch2a"
    type: "Convolution"
    convolution_param {
        num_output: 128
        kernel_size: 1
        pad: 0
        stride: 1
        bias_term: false
    }
}

layer {
    bottom: "res3b_branch2a"
    top: "res3b_branch2a"
    name: "bn3b_branch2a"
    type: "BatchNorm"
    batch_norm_param {
        use_global_stats: false
    }
}

layer {
    bottom: "res3b_branch2a"
    top: "res3b_branch2a"
    name: "scale3b_branch2a"
    type: "Scale"
    scale_param {
        bias_term: true
    }
}

layer {
    bottom: "res3b_branch2a"
    top: "res3b_branch2a"
    name: "res3b_branch2a_relu"
    type: "ReLU"
}

layer {
    bottom: "res3b_branch2a"
    top: "res3b_branch2b"
    name: "res3b_branch2b"
    type: "Convolution"
    convolution_param {
        num_output: 128
        kernel_size: 3
        pad: 1
        stride: 1
        bias_term: false
    }
}

layer {
    bottom: "res3b_branch2b"
    top: "res3b_branch2b"
    name: "bn3b_branch2b"
    type: "BatchNorm"
    batch_norm_param {
        use_global_stats: false
    }
}

layer {
    bottom: "res3b_branch2b"
    top: "res3b_branch2b"
    name: "scale3b_branch2b"
    type: "Scale"
    scale_param {
        bias_term: true
    }
}

layer {
    bottom: "res3b_branch2b"
    top: "res3b_branch2b"
    name: "res3b_branch2b_relu"
    type: "ReLU"
}

layer {
    bottom: "res3b_branch2b"
    top: "res3b_branch2c"
    name: "res3b_branch2c"
    type: "Convolution"
    convolution_param {
        num_output: 512
        kernel_size: 1
        pad: 0
        stride: 1
        bias_term: false
    }
}

layer {
    bottom: "res3b_branch2c"
    top: "res3b_branch2c"
    name: "bn3b_branch2c"
    type: "BatchNorm"
    batch_norm_param {
        use_global_stats: false
    }
}

layer {
    bottom: "res3b_branch2c"
    top: "res3b_branch2c"
    name: "scale3b_branch2c"
    type: "Scale"
    scale_param {
        bias_term: true
    }
}

layer {
    bottom: "res3a"
    bottom: "res3b_branch2c"
    top: "res3b"
    name: "res3b"
    type: "Eltwise"
}

layer {
    bottom: "res3b"
    top: "res3b"
    name: "res3b_relu"
    type: "ReLU"
}

layer {
    bottom: "res3b"
    top: "res3c_branch2a"
    name: "res3c_branch2a"
    type: "Convolution"
    convolution_param {
        num_output: 128
        kernel_size: 1
        pad: 0
        stride: 1
        bias_term: false
    }
}

layer {
    bottom: "res3c_branch2a"
    top: "res3c_branch2a"
    name: "bn3c_branch2a"
    type: "BatchNorm"
    batch_norm_param {
        use_global_stats: false
    }
}

layer {
    bottom: "res3c_branch2a"
    top: "res3c_branch2a"
    name: "scale3c_branch2a"
    type: "Scale"
    scale_param {
        bias_term: true
    }
}

layer {
    bottom: "res3c_branch2a"
    top: "res3c_branch2a"
    name: "res3c_branch2a_relu"
    type: "ReLU"
}

layer {
    bottom: "res3c_branch2a"
    top: "res3c_branch2b"
    name: "res3c_branch2b"
    type: "Convolution"
    convolution_param {
        num_output: 128
        kernel_size: 3
        pad: 1
        stride: 1
        bias_term: false
    }
}

layer {
    bottom: "res3c_branch2b"
    top: "res3c_branch2b"
    name: "bn3c_branch2b"
    type: "BatchNorm"
    batch_norm_param {
        use_global_stats: false
    }
}

layer {
    bottom: "res3c_branch2b"
    top: "res3c_branch2b"
    name: "scale3c_branch2b"
    type: "Scale"
    scale_param {
        bias_term: true
    }
}

layer {
    bottom: "res3c_branch2b"
    top: "res3c_branch2b"
    name: "res3c_branch2b_relu"
    type: "ReLU"
}

layer {
    bottom: "res3c_branch2b"
    top: "res3c_branch2c"
    name: "res3c_branch2c"
    type: "Convolution"
    convolution_param {
        num_output: 512
        kernel_size: 1
        pad: 0
        stride: 1
        bias_term: false
    }
}

layer {
    bottom: "res3c_branch2c"
    top: "res3c_branch2c"
    name: "bn3c_branch2c"
    type: "BatchNorm"
    batch_norm_param {
        use_global_stats: false
    }
}

layer {
    bottom: "res3c_branch2c"
    top: "res3c_branch2c"
    name: "scale3c_branch2c"
    type: "Scale"
    scale_param {
        bias_term: true
    }
}

layer {
    bottom: "res3b"
    bottom: "res3c_branch2c"
    top: "res3c"
    name: "res3c"
    type: "Eltwise"
}

layer {
    bottom: "res3c"
    top: "res3c"
    name: "res3c_relu"
    type: "ReLU"
}

layer {
    bottom: "res3c"
    top: "res3d_branch2a"
    name: "res3d_branch2a"
    type: "Convolution"
    convolution_param {
        num_output: 128
        kernel_size: 1
        pad: 0
        stride: 1
        bias_term: false
    }
}

layer {
    bottom: "res3d_branch2a"
    top: "res3d_branch2a"
    name: "bn3d_branch2a"
    type: "BatchNorm"
    batch_norm_param {
        use_global_stats: false
    }
}

layer {
    bottom: "res3d_branch2a"
    top: "res3d_branch2a"
    name: "scale3d_branch2a"
    type: "Scale"
    scale_param {
        bias_term: true
    }
}

layer {
    bottom: "res3d_branch2a"
    top: "res3d_branch2a"
    name: "res3d_branch2a_relu"
    type: "ReLU"
}

layer {
    bottom: "res3d_branch2a"
    top: "res3d_branch2b"
    name: "res3d_branch2b"
    type: "Convolution"
    convolution_param {
        num_output: 128
        kernel_size: 3
        pad: 1
        stride: 1
        bias_term: false
    }
}

layer {
    bottom: "res3d_branch2b"
    top: "res3d_branch2b"
    name: "bn3d_branch2b"
    type: "BatchNorm"
    batch_norm_param {
        use_global_stats: false
    }
}

layer {
    bottom: "res3d_branch2b"
    top: "res3d_branch2b"
    name: "scale3d_branch2b"
    type: "Scale"
    scale_param {
        bias_term: true
    }
}

layer {
    bottom: "res3d_branch2b"
    top: "res3d_branch2b"
    name: "res3d_branch2b_relu"
    type: "ReLU"
}

layer {
    bottom: "res3d_branch2b"
    top: "res3d_branch2c"
    name: "res3d_branch2c"
    type: "Convolution"
    convolution_param {
        num_output: 512
        kernel_size: 1
        pad: 0
        stride: 1
        bias_term: false
    }
}

layer {
    bottom: "res3d_branch2c"
    top: "res3d_branch2c"
    name: "bn3d_branch2c"
    type: "BatchNorm"
    batch_norm_param {
        use_global_stats: false
    }
}

layer {
    bottom: "res3d_branch2c"
    top: "res3d_branch2c"
    name: "scale3d_branch2c"
    type: "Scale"
    scale_param {
        bias_term: true
    }
}

layer {
    bottom: "res3c"
    bottom: "res3d_branch2c"
    top: "res3d"
    name: "res3d"
    type: "Eltwise"
}

layer {
    bottom: "res3d"
    top: "res3d"
    name: "res3d_relu"
    type: "ReLU"
}

layer {
    bottom: "res3d"
    top: "res4a_branch1"
    name: "res4a_branch1"
    type: "Convolution"
    convolution_param {
        num_output: 1024
        kernel_size: 1
        pad: 0
        stride: 2
        bias_term: false
    }
}

layer {
    bottom: "res4a_branch1"
    top: "res4a_branch1"
    name: "bn4a_branch1"
    type: "BatchNorm"
    batch_norm_param {
        use_global_stats: false
    }
}

layer {
    bottom: "res4a_branch1"
    top: "res4a_branch1"
    name: "scale4a_branch1"
    type: "Scale"
    scale_param {
        bias_term: true
    }
}

layer {
    bottom: "res3d"
    top: "res4a_branch2a"
    name: "res4a_branch2a"
    type: "Convolution"
    convolution_param {
        num_output: 256
        kernel_size: 1
        pad: 0
        stride: 2
        bias_term: false
    }
}

layer {
    bottom: "res4a_branch2a"
    top: "res4a_branch2a"
    name: "bn4a_branch2a"
    type: "BatchNorm"
    batch_norm_param {
        use_global_stats: false
    }
}

layer {
    bottom: "res4a_branch2a"
    top: "res4a_branch2a"
    name: "scale4a_branch2a"
    type: "Scale"
    scale_param {
        bias_term: true
    }
}

layer {
    bottom: "res4a_branch2a"
    top: "res4a_branch2a"
    name: "res4a_branch2a_relu"
    type: "ReLU"
}

layer {
    bottom: "res4a_branch2a"
    top: "res4a_branch2b"
    name: "res4a_branch2b"
    type: "Convolution"
    convolution_param {
        num_output: 256
        kernel_size: 3
        pad: 1
        stride: 1
        bias_term: false
    }
}

layer {
    bottom: "res4a_branch2b"
    top: "res4a_branch2b"
    name: "bn4a_branch2b"
    type: "BatchNorm"
    batch_norm_param {
        use_global_stats: false
    }
}

layer {
    bottom: "res4a_branch2b"
    top: "res4a_branch2b"
    name: "scale4a_branch2b"
    type: "Scale"
    scale_param {
        bias_term: true
    }
}

layer {
    bottom: "res4a_branch2b"
    top: "res4a_branch2b"
    name: "res4a_branch2b_relu"
    type: "ReLU"
}

layer {
    bottom: "res4a_branch2b"
    top: "res4a_branch2c"
    name: "res4a_branch2c"
    type: "Convolution"
    convolution_param {
        num_output: 1024
        kernel_size: 1
        pad: 0
        stride: 1
        bias_term: false
    }
}

layer {
    bottom: "res4a_branch2c"
    top: "res4a_branch2c"
    name: "bn4a_branch2c"
    type: "BatchNorm"
    batch_norm_param {
        use_global_stats: false
    }
}

layer {
    bottom: "res4a_branch2c"
    top: "res4a_branch2c"
    name: "scale4a_branch2c"
    type: "Scale"
    scale_param {
        bias_term: true
    }
}

layer {
    bottom: "res4a_branch1"
    bottom: "res4a_branch2c"
    top: "res4a"
    name: "res4a"
    type: "Eltwise"
}

layer {
    bottom: "res4a"
    top: "res4a"
    name: "res4a_relu"
    type: "ReLU"
}

layer {
    bottom: "res4a"
    top: "res4b_branch2a"
    name: "res4b_branch2a"
    type: "Convolution"
    convolution_param {
        num_output: 256
        kernel_size: 1
        pad: 0
        stride: 1
        bias_term: false
    }
}

layer {
    bottom: "res4b_branch2a"
    top: "res4b_branch2a"
    name: "bn4b_branch2a"
    type: "BatchNorm"
    batch_norm_param {
        use_global_stats: false
    }
}

layer {
    bottom: "res4b_branch2a"
    top: "res4b_branch2a"
    name: "scale4b_branch2a"
    type: "Scale"
    scale_param {
        bias_term: true
    }
}

layer {
    bottom: "res4b_branch2a"
    top: "res4b_branch2a"
    name: "res4b_branch2a_relu"
    type: "ReLU"
}

layer {
    bottom: "res4b_branch2a"
    top: "res4b_branch2b"
    name: "res4b_branch2b"
    type: "Convolution"
    convolution_param {
        num_output: 256
        kernel_size: 3
        pad: 1
        stride: 1
        bias_term: false
    }
}

layer {
    bottom: "res4b_branch2b"
    top: "res4b_branch2b"
    name: "bn4b_branch2b"
    type: "BatchNorm"
    batch_norm_param {
        use_global_stats: false
    }
}

layer {
    bottom: "res4b_branch2b"
    top: "res4b_branch2b"
    name: "scale4b_branch2b"
    type: "Scale"
    scale_param {
        bias_term: true
    }
}

layer {
    bottom: "res4b_branch2b"
    top: "res4b_branch2b"
    name: "res4b_branch2b_relu"
    type: "ReLU"
}

layer {
    bottom: "res4b_branch2b"
    top: "res4b_branch2c"
    name: "res4b_branch2c"
    type: "Convolution"
    convolution_param {
        num_output: 1024
        kernel_size: 1
        pad: 0
        stride: 1
        bias_term: false
    }
}

layer {
    bottom: "res4b_branch2c"
    top: "res4b_branch2c"
    name: "bn4b_branch2c"
    type: "BatchNorm"
    batch_norm_param {
        use_global_stats: false
    }
}

layer {
    bottom: "res4b_branch2c"
    top: "res4b_branch2c"
    name: "scale4b_branch2c"
    type: "Scale"
    scale_param {
        bias_term: true
    }
}

layer {
    bottom: "res4a"
    bottom: "res4b_branch2c"
    top: "res4b"
    name: "res4b"
    type: "Eltwise"
}

layer {
    bottom: "res4b"
    top: "res4b"
    name: "res4b_relu"
    type: "ReLU"
}

layer {
    bottom: "res4b"
    top: "res4c_branch2a"
    name: "res4c_branch2a"
    type: "Convolution"
    convolution_param {
        num_output: 256
        kernel_size: 1
        pad: 0
        stride: 1
        bias_term: false
    }
}

layer {
    bottom: "res4c_branch2a"
    top: "res4c_branch2a"
    name: "bn4c_branch2a"
    type: "BatchNorm"
    batch_norm_param {
        use_global_stats: false
    }
}

layer {
    bottom: "res4c_branch2a"
    top: "res4c_branch2a"
    name: "scale4c_branch2a"
    type: "Scale"
    scale_param {
        bias_term: true
    }
}

layer {
    bottom: "res4c_branch2a"
    top: "res4c_branch2a"
    name: "res4c_branch2a_relu"
    type: "ReLU"
}

layer {
    bottom: "res4c_branch2a"
    top: "res4c_branch2b"
    name: "res4c_branch2b"
    type: "Convolution"
    convolution_param {
        num_output: 256
        kernel_size: 3
        pad: 1
        stride: 1
        bias_term: false
    }
}

layer {
    bottom: "res4c_branch2b"
    top: "res4c_branch2b"
    name: "bn4c_branch2b"
    type: "BatchNorm"
    batch_norm_param {
        use_global_stats: false
    }
}

layer {
    bottom: "res4c_branch2b"
    top: "res4c_branch2b"
    name: "scale4c_branch2b"
    type: "Scale"
    scale_param {
        bias_term: true
    }
}

layer {
    bottom: "res4c_branch2b"
    top: "res4c_branch2b"
    name: "res4c_branch2b_relu"
    type: "ReLU"
}

layer {
    bottom: "res4c_branch2b"
    top: "res4c_branch2c"
    name: "res4c_branch2c"
    type: "Convolution"
    convolution_param {
        num_output: 1024
        kernel_size: 1
        pad: 0
        stride: 1
        bias_term: false
    }
}

layer {
    bottom: "res4c_branch2c"
    top: "res4c_branch2c"
    name: "bn4c_branch2c"
    type: "BatchNorm"
    batch_norm_param {
        use_global_stats: false
    }
}

layer {
    bottom: "res4c_branch2c"
    top: "res4c_branch2c"
    name: "scale4c_branch2c"
    type: "Scale"
    scale_param {
        bias_term: true
    }
}

layer {
    bottom: "res4b"
    bottom: "res4c_branch2c"
    top: "res4c"
    name: "res4c"
    type: "Eltwise"
}

layer {
    bottom: "res4c"
    top: "res4c"
    name: "res4c_relu"
    type: "ReLU"
}

layer {
    bottom: "res4c"
    top: "res4d_branch2a"
    name: "res4d_branch2a"
    type: "Convolution"
    convolution_param {
        num_output: 256
        kernel_size: 1
        pad: 0
        stride: 1
        bias_term: false
    }
}

layer {
    bottom: "res4d_branch2a"
    top: "res4d_branch2a"
    name: "bn4d_branch2a"
    type: "BatchNorm"
    batch_norm_param {
        use_global_stats: false
    }
}

layer {
    bottom: "res4d_branch2a"
    top: "res4d_branch2a"
    name: "scale4d_branch2a"
    type: "Scale"
    scale_param {
        bias_term: true
    }
}

layer {
    bottom: "res4d_branch2a"
    top: "res4d_branch2a"
    name: "res4d_branch2a_relu"
    type: "ReLU"
}

layer {
    bottom: "res4d_branch2a"
    top: "res4d_branch2b"
    name: "res4d_branch2b"
    type: "Convolution"
    convolution_param {
        num_output: 256
        kernel_size: 3
        pad: 1
        stride: 1
        bias_term: false
    }
}

layer {
    bottom: "res4d_branch2b"
    top: "res4d_branch2b"
    name: "bn4d_branch2b"
    type: "BatchNorm"
    batch_norm_param {
        use_global_stats: false
    }
}

layer {
    bottom: "res4d_branch2b"
    top: "res4d_branch2b"
    name: "scale4d_branch2b"
    type: "Scale"
    scale_param {
        bias_term: true
    }
}

layer {
    bottom: "res4d_branch2b"
    top: "res4d_branch2b"
    name: "res4d_branch2b_relu"
    type: "ReLU"
}

layer {
    bottom: "res4d_branch2b"
    top: "res4d_branch2c"
    name: "res4d_branch2c"
    type: "Convolution"
    convolution_param {
        num_output: 1024
        kernel_size: 1
        pad: 0
        stride: 1
        bias_term: false
    }
}

layer {
    bottom: "res4d_branch2c"
    top: "res4d_branch2c"
    name: "bn4d_branch2c"
    type: "BatchNorm"
    batch_norm_param {
        use_global_stats: false
    }
}

layer {
    bottom: "res4d_branch2c"
    top: "res4d_branch2c"
    name: "scale4d_branch2c"
    type: "Scale"
    scale_param {
        bias_term: true
    }
}

layer {
    bottom: "res4c"
    bottom: "res4d_branch2c"
    top: "res4d"
    name: "res4d"
    type: "Eltwise"
}

layer {
    bottom: "res4d"
    top: "res4d"
    name: "res4d_relu"
    type: "ReLU"
}

layer {
    bottom: "res4d"
    top: "res4e_branch2a"
    name: "res4e_branch2a"
    type: "Convolution"
    convolution_param {
        num_output: 256
        kernel_size: 1
        pad: 0
        stride: 1
        bias_term: false
    }
}

layer {
    bottom: "res4e_branch2a"
    top: "res4e_branch2a"
    name: "bn4e_branch2a"
    type: "BatchNorm"
    batch_norm_param {
        use_global_stats: false
    }
}

layer {
    bottom: "res4e_branch2a"
    top: "res4e_branch2a"
    name: "scale4e_branch2a"
    type: "Scale"
    scale_param {
        bias_term: true
    }
}

layer {
    bottom: "res4e_branch2a"
    top: "res4e_branch2a"
    name: "res4e_branch2a_relu"
    type: "ReLU"
}

layer {
    bottom: "res4e_branch2a"
    top: "res4e_branch2b"
    name: "res4e_branch2b"
    type: "Convolution"
    convolution_param {
        num_output: 256
        kernel_size: 3
        pad: 1
        stride: 1
        bias_term: false
    }
}

layer {
    bottom: "res4e_branch2b"
    top: "res4e_branch2b"
    name: "bn4e_branch2b"
    type: "BatchNorm"
    batch_norm_param {
        use_global_stats: false
    }
}

layer {
    bottom: "res4e_branch2b"
    top: "res4e_branch2b"
    name: "scale4e_branch2b"
    type: "Scale"
    scale_param {
        bias_term: true
    }
}

layer {
    bottom: "res4e_branch2b"
    top: "res4e_branch2b"
    name: "res4e_branch2b_relu"
    type: "ReLU"
}

layer {
    bottom: "res4e_branch2b"
    top: "res4e_branch2c"
    name: "res4e_branch2c"
    type: "Convolution"
    convolution_param {
        num_output: 1024
        kernel_size: 1
        pad: 0
        stride: 1
        bias_term: false
    }
}

layer {
    bottom: "res4e_branch2c"
    top: "res4e_branch2c"
    name: "bn4e_branch2c"
    type: "BatchNorm"
    batch_norm_param {
        use_global_stats: false
    }
}

layer {
    bottom: "res4e_branch2c"
    top: "res4e_branch2c"
    name: "scale4e_branch2c"
    type: "Scale"
    scale_param {
        bias_term: true
    }
}

layer {
    bottom: "res4d"
    bottom: "res4e_branch2c"
    top: "res4e"
    name: "res4e"
    type: "Eltwise"
}

layer {
    bottom: "res4e"
    top: "res4e"
    name: "res4e_relu"
    type: "ReLU"
}

layer {
    bottom: "res4e"
    top: "res4f_branch2a"
    name: "res4f_branch2a"
    type: "Convolution"
    convolution_param {
        num_output: 256
        kernel_size: 1
        pad: 0
        stride: 1
        bias_term: false
    }
}

layer {
    bottom: "res4f_branch2a"
    top: "res4f_branch2a"
    name: "bn4f_branch2a"
    type: "BatchNorm"
    batch_norm_param {
        use_global_stats: false
    }
}

layer {
    bottom: "res4f_branch2a"
    top: "res4f_branch2a"
    name: "scale4f_branch2a"
    type: "Scale"
    scale_param {
        bias_term: true
    }
}

layer {
    bottom: "res4f_branch2a"
    top: "res4f_branch2a"
    name: "res4f_branch2a_relu"
    type: "ReLU"
}

layer {
    bottom: "res4f_branch2a"
    top: "res4f_branch2b"
    name: "res4f_branch2b"
    type: "Convolution"
    convolution_param {
        num_output: 256
        kernel_size: 3
        pad: 1
        stride: 1
        bias_term: false
    }
}

layer {
    bottom: "res4f_branch2b"
    top: "res4f_branch2b"
    name: "bn4f_branch2b"
    type: "BatchNorm"
    batch_norm_param {
        use_global_stats: false
    }
}

layer {
    bottom: "res4f_branch2b"
    top: "res4f_branch2b"
    name: "scale4f_branch2b"
    type: "Scale"
    scale_param {
        bias_term: true
    }
}

layer {
    bottom: "res4f_branch2b"
    top: "res4f_branch2b"
    name: "res4f_branch2b_relu"
    type: "ReLU"
}

layer {
    bottom: "res4f_branch2b"
    top: "res4f_branch2c"
    name: "res4f_branch2c"
    type: "Convolution"
    convolution_param {
        num_output: 1024
        kernel_size: 1
        pad: 0
        stride: 1
        bias_term: false
    }
}

layer {
    bottom: "res4f_branch2c"
    top: "res4f_branch2c"
    name: "bn4f_branch2c"
    type: "BatchNorm"
    batch_norm_param {
        use_global_stats: false
    }
}

layer {
    bottom: "res4f_branch2c"
    top: "res4f_branch2c"
    name: "scale4f_branch2c"
    type: "Scale"
    scale_param {
        bias_term: true
    }
}

layer {
    bottom: "res4e"
    bottom: "res4f_branch2c"
    top: "res4f"
    name: "res4f"
    type: "Eltwise"
}

layer {
    bottom: "res4f"
    top: "res4f"
    name: "res4f_relu"
    type: "ReLU"
}

layer {
    bottom: "res4f"
    top: "res5a_branch1"
    name: "res5a_branch1"
    type: "Convolution"
    convolution_param {
        num_output: 2048
        kernel_size: 1
        pad: 0
        stride: 2
        bias_term: false
    }
}

layer {
    bottom: "res5a_branch1"
    top: "res5a_branch1"
    name: "bn5a_branch1"
    type: "BatchNorm"
    batch_norm_param {
        use_global_stats: false
    }
}

layer {
    bottom: "res5a_branch1"
    top: "res5a_branch1"
    name: "scale5a_branch1"
    type: "Scale"
    scale_param {
        bias_term: true
    }
}

layer {
    bottom: "res4f"
    top: "res5a_branch2a"
    name: "res5a_branch2a"
    type: "Convolution"
    convolution_param {
        num_output: 512
        kernel_size: 1
        pad: 0
        stride: 2
        bias_term: false
    }
}

layer {
    bottom: "res5a_branch2a"
    top: "res5a_branch2a"
    name: "bn5a_branch2a"
    type: "BatchNorm"
    batch_norm_param {
        use_global_stats: false
    }
}

layer {
    bottom: "res5a_branch2a"
    top: "res5a_branch2a"
    name: "scale5a_branch2a"
    type: "Scale"
    scale_param {
        bias_term: true
    }
}

layer {
    bottom: "res5a_branch2a"
    top: "res5a_branch2a"
    name: "res5a_branch2a_relu"
    type: "ReLU"
}

layer {
    bottom: "res5a_branch2a"
    top: "res5a_branch2b"
    name: "res5a_branch2b"
    type: "Convolution"
    convolution_param {
        num_output: 512
        kernel_size: 3
        pad: 1
        stride: 1
        bias_term: false
    }
}

layer {
    bottom: "res5a_branch2b"
    top: "res5a_branch2b"
    name: "bn5a_branch2b"
    type: "BatchNorm"
    batch_norm_param {
        use_global_stats: false
    }
}

layer {
    bottom: "res5a_branch2b"
    top: "res5a_branch2b"
    name: "scale5a_branch2b"
    type: "Scale"
    scale_param {
        bias_term: true
    }
}

layer {
    bottom: "res5a_branch2b"
    top: "res5a_branch2b"
    name: "res5a_branch2b_relu"
    type: "ReLU"
}

layer {
    bottom: "res5a_branch2b"
    top: "res5a_branch2c"
    name: "res5a_branch2c"
    type: "Convolution"
    convolution_param {
        num_output: 2048
        kernel_size: 1
        pad: 0
        stride: 1
        bias_term: false
    }
}

layer {
    bottom: "res5a_branch2c"
    top: "res5a_branch2c"
    name: "bn5a_branch2c"
    type: "BatchNorm"
    batch_norm_param {
        use_global_stats: false
    }
}

layer {
    bottom: "res5a_branch2c"
    top: "res5a_branch2c"
    name: "scale5a_branch2c"
    type: "Scale"
    scale_param {
        bias_term: true
    }
}

layer {
    bottom: "res5a_branch1"
    bottom: "res5a_branch2c"
    top: "res5a"
    name: "res5a"
    type: "Eltwise"
}

layer {
    bottom: "res5a"
    top: "res5a"
    name: "res5a_relu"
    type: "ReLU"
}

layer {
    bottom: "res5a"
    top: "res5b_branch2a"
    name: "res5b_branch2a"
    type: "Convolution"
    convolution_param {
        num_output: 512
        kernel_size: 1
        pad: 0
        stride: 1
        bias_term: false
    }
}

layer {
    bottom: "res5b_branch2a"
    top: "res5b_branch2a"
    name: "bn5b_branch2a"
    type: "BatchNorm"
    batch_norm_param {
        use_global_stats: false
    }
}

layer {
    bottom: "res5b_branch2a"
    top: "res5b_branch2a"
    name: "scale5b_branch2a"
    type: "Scale"
    scale_param {
        bias_term: true
    }
}

layer {
    bottom: "res5b_branch2a"
    top: "res5b_branch2a"
    name: "res5b_branch2a_relu"
    type: "ReLU"
}

layer {
    bottom: "res5b_branch2a"
    top: "res5b_branch2b"
    name: "res5b_branch2b"
    type: "Convolution"
    convolution_param {
        num_output: 512
        kernel_size: 3
        pad: 1
        stride: 1
        bias_term: false
    }
}

layer {
    bottom: "res5b_branch2b"
    top: "res5b_branch2b"
    name: "bn5b_branch2b"
    type: "BatchNorm"
    batch_norm_param {
        use_global_stats: false
    }
}

layer {
    bottom: "res5b_branch2b"
    top: "res5b_branch2b"
    name: "scale5b_branch2b"
    type: "Scale"
    scale_param {
        bias_term: true
    }
}

layer {
    bottom: "res5b_branch2b"
    top: "res5b_branch2b"
    name: "res5b_branch2b_relu"
    type: "ReLU"
}

layer {
    bottom: "res5b_branch2b"
    top: "res5b_branch2c"
    name: "res5b_branch2c"
    type: "Convolution"
    convolution_param {
        num_output: 2048
        kernel_size: 1
        pad: 0
        stride: 1
        bias_term: false
    }
}

layer {
    bottom: "res5b_branch2c"
    top: "res5b_branch2c"
    name: "bn5b_branch2c"
    type: "BatchNorm"
    batch_norm_param {
        use_global_stats: false
    }
}

layer {
    bottom: "res5b_branch2c"
    top: "res5b_branch2c"
    name: "scale5b_branch2c"
    type: "Scale"
    scale_param {
        bias_term: true
    }
}

layer {
    bottom: "res5a"
    bottom: "res5b_branch2c"
    top: "res5b"
    name: "res5b"
    type: "Eltwise"
}

layer {
    bottom: "res5b"
    top: "res5b"
    name: "res5b_relu"
    type: "ReLU"
}

layer {
    bottom: "res5b"
    top: "res5c_branch2a"
    name: "res5c_branch2a"
    type: "Convolution"
    convolution_param {
        num_output: 512
        kernel_size: 1
        pad: 0
        stride: 1
        bias_term: false
    }
}

layer {
    bottom: "res5c_branch2a"
    top: "res5c_branch2a"
    name: "bn5c_branch2a"
    type: "BatchNorm"
    batch_norm_param {
        use_global_stats: false
    }
}

layer {
    bottom: "res5c_branch2a"
    top: "res5c_branch2a"
    name: "scale5c_branch2a"
    type: "Scale"
    scale_param {
        bias_term: true
    }
}

layer {
    bottom: "res5c_branch2a"
    top: "res5c_branch2a"
    name: "res5c_branch2a_relu"
    type: "ReLU"
}

layer {
    bottom: "res5c_branch2a"
    top: "res5c_branch2b"
    name: "res5c_branch2b"
    type: "Convolution"
    convolution_param {
        num_output: 512
        kernel_size: 3
        pad: 1
        stride: 1
        bias_term: false
    }
}

layer {
    bottom: "res5c_branch2b"
    top: "res5c_branch2b"
    name: "bn5c_branch2b"
    type: "BatchNorm"
    batch_norm_param {
        use_global_stats: false
    }
}

layer {
    bottom: "res5c_branch2b"
    top: "res5c_branch2b"
    name: "scale5c_branch2b"
    type: "Scale"
    scale_param {
        bias_term: true
    }
}

layer {
    bottom: "res5c_branch2b"
    top: "res5c_branch2b"
    name: "res5c_branch2b_relu"
    type: "ReLU"
}

layer {
    bottom: "res5c_branch2b"
    top: "res5c_branch2c"
    name: "res5c_branch2c"
    type: "Convolution"
    convolution_param {
        num_output: 2048
        kernel_size: 1
        pad: 0
        stride: 1
        bias_term: false
    }
}

layer {
    bottom: "res5c_branch2c"
    top: "res5c_branch2c"
    name: "bn5c_branch2c"
    type: "BatchNorm"
    batch_norm_param {
        use_global_stats: false
    }
}

layer {
    bottom: "res5c_branch2c"
    top: "res5c_branch2c"
    name: "scale5c_branch2c"
    type: "Scale"
    scale_param {
        bias_term: true
    }
}

layer {
    bottom: "res5b"
    bottom: "res5c_branch2c"
    top: "res5c"
    name: "res5c"
    type: "Eltwise"
}

layer {
    bottom: "res5c"
    top: "res5c"
    name: "res5c_relu"
    type: "ReLU"
}

layer {
    bottom: "res5c"
    top: "pool5"
    name: "pool5"
    type: "Pooling"
    pooling_param {
        kernel_size: 7
        stride: 1
        pool: AVE
    }
}
layer {
    bottom: "pool5"
    top: "pool5"
    type: "Dropout"
    dropout_param {
      dropout_ratio: 0.5
    }
}
# transform the pool5 layer 
layer {
  name: "pool5_sclice"
  type: "Slice"
  bottom: "pool5"
  top: "pool5_1"
  top: "pool5_2"
  top: "pool5_3"
  top: "pool5_4"
  slice_param {
    axis: 0
    slice_point: 8 
    slice_point: 16
    slice_point: 24
  }
}
layer {
  name: "pool5_all"
  type: "Concat"
  bottom: "pool5_1"
  bottom: "pool5_2"
  bottom: "pool5_3"
  bottom: "pool5_4"
  top: "pool5_all"
  concat_param {
    axis: 1
  }
}
layer {
  name: "fine_fc8"
  type: "InnerProduct"
  bottom: "pool5_all"
  top: "fine_fc8"
  param {
    lr_mult: 1
    decay_mult: 1
  }
  param {
    lr_mult: 2
    decay_mult: 0
  }
  inner_product_param {
    num_output: 54
    weight_filler {
      type: "gaussian"
      std: 0.01
    }
    bias_filler {
      type: "constant"
      value: 0
    }
  }
}
layer {
  name: "multilabel_accuracy"
  type: "MultiLabelAccuracy"
  bottom: "fine_fc8"
  bottom: "label"
  top: "multilabel_accuracy"
}
layer {
  name: "multilabel_loss"
  type: "MultiLabelLoss"
  bottom: "fine_fc8"
  bottom: "label"
  top: "multilabel_loss"
  multilabel_loss_param{
    weight:0.315794
    weight:0.010363
    weight:0.408257
    weight:0.542915
    weight:0.035642
    weight:0.140838
    weight:0.772302
    weight:0.076208
    weight:0.946166
    weight:0.046891
    weight:0.006346
    weight:0.201965
    weight:0.950389
    weight:0.015967
    weight:0.061539
    weight:0.212741
    weight:0.081277
    weight:0.048828
    weight:0.235486
    weight:0.120153
    weight:0.286559
    weight:0.030739
    weight:0.044151
    weight:0.095925
    weight:0.027092
    weight:0.588858
    weight:0.032840
    weight:0.022827
    weight:0.029523
    weight:0.275063
    weight:0.128621
    weight:0.301496
    weight:0.231386
    weight:0.098026
    weight:0.015369
    weight:0.259632
    weight:0.086880
    weight:0.020541
    weight:0.071037
    weight:0.028699
    weight:0.034756
    weight:0.029091
    weight:0.011270
    weight:0.020252
    weight:0.305925
    weight:0.036095
    weight:0.025465
    weight:0.045861
    weight:0.021983
    weight:0.007396
    weight:0.016544
    weight:0.026721
    weight:0.141436
    weight:0.008653
  }
}
