name: "CaffeNet"
layer {
  name: "data1"
  type: "MultiImageData"
  top: "data1"
  top: "label"
  include {
    phase: TEST
  }
  transform_param {
    mirror: false
    crop_size: 227
    mean_value: 104
    mean_value: 117
    mean_value: 123
  }
  multiimage_data_param {
    root_folder: "./../../data/RAP_dataset/"
    # root_folder: "/mnt/data1/lidw/dataset/RAP2/images-pedestrian-orignal/"
    source: "./../static/images-list-parts/rap2_test_4.txt"
    shuffle: false
    batch_size: 32 
    new_height: 256
    new_width: 256
  }
}
layer {
  name: "data2"
  type: "MultiImageData"
  top: "data2"
  top: "label2"
  include {
    phase: TEST
  }
  transform_param {
    mirror: false
    crop_size: 227
    mean_value: 104
    mean_value: 117
    mean_value: 123
  }
  multiimage_data_param {
    root_folder: "./../../data/RAP_dataset_hs/"
    # root_folder: "/mnt/data1/lidw/dataset/RAP2/images-pedestrian-hs/"
    source: "./../static/images-list-parts/rap2_test_4.txt"
    shuffle: false
    batch_size: 32 
    new_height: 256
    new_width: 256
  }
}
layer {
  name: "data3"
  type: "MultiImageData"
  top: "data3"
  top: "label3"
  include {
    phase: TEST
  }
  transform_param {
    mirror: false
    crop_size: 227
    mean_value: 104
    mean_value: 117
    mean_value: 123
  }
  multiimage_data_param {
    root_folder: "./../../data/RAP_dataset_ub/"
    # root_folder: "/mnt/data1/lidw/dataset/RAP2/images-pedestrian-ub/"
    source: "./../static/images-list-parts/rap2_test_4.txt"
    shuffle: false
    batch_size: 32 
    new_height: 256
    new_width: 256
  }
}
layer {
  name: "data4"
  type: "MultiImageData"
  top: "data4"
  top: "label4"
  include {
    phase: TEST
  }
  transform_param {
    mirror: false
    crop_size: 227
    mean_value: 104
    mean_value: 117
    mean_value: 123
  }
  multiimage_data_param {
    root_folder: "./../../data/RAP_dataset_lb/"
    # root_folder: "/mnt/data1/lidw/dataset/RAP2/images-pedestrian-lb/"
    source: "./../static/images-list-parts/rap2_test_4.txt"
    shuffle: false
    batch_size: 32 
    new_height: 256
    new_width: 256
  }
}
layer {
  name: "data"
  type: "Concat"
  bottom: "data1"
  bottom: "data2"
  bottom: "data3"
  bottom: "data4"
  top: "data"
  concat_param {
    axis: 0
  }
}
layer {
  name: "silence_label2"
  type: "Silence"
  bottom: "label2"
}
layer {
  name: "silence_label3"
  type: "Silence"
  bottom: "label3"
}
layer {
  name: "silence_label4"
  type: "Silence"
  bottom: "label4"
}

layer {
  name: "conv1"
  type: "Convolution"
  bottom: "data"
  top: "conv1"
  param {
    lr_mult: 1
    decay_mult: 1
  }
  param {
    lr_mult: 2
    decay_mult: 0
  }
  convolution_param {
    num_output: 96
    kernel_size: 11
    stride: 4
    weight_filler {
      type: "gaussian"
      std: 0.01
    }
    bias_filler {
      type: "constant"
      value: 0
    }
  }
}
layer {
  name: "relu1"
  type: "ReLU"
  bottom: "conv1"
  top: "conv1"
}
layer {
  name: "pool1"
  type: "Pooling"
  bottom: "conv1"
  top: "pool1"
  pooling_param {
    pool: MAX
    kernel_size: 3
    stride: 2
  }
}
layer {
  name: "norm1"
  type: "LRN"
  bottom: "pool1"
  top: "norm1"
  lrn_param {
    local_size: 5
    alpha: 0.0001
    beta: 0.75
  }
}
layer {
  name: "conv2"
  type: "Convolution"
  bottom: "norm1"
  top: "conv2"
  param {
    lr_mult: 1
    decay_mult: 1
  }
  param {
    lr_mult: 2
    decay_mult: 0
  }
  convolution_param {
    num_output: 256
    pad: 2
    kernel_size: 5
    group: 2
    weight_filler {
      type: "gaussian"
      std: 0.01
    }
    bias_filler {
      type: "constant"
      value: 1
    }
  }
}
layer {
  name: "relu2"
  type: "ReLU"
  bottom: "conv2"
  top: "conv2"
}
layer {
  name: "pool2"
  type: "Pooling"
  bottom: "conv2"
  top: "pool2"
  pooling_param {
    pool: MAX
    kernel_size: 3
    stride: 2
  }
}
layer {
  name: "norm2"
  type: "LRN"
  bottom: "pool2"
  top: "norm2"
  lrn_param {
    local_size: 5
    alpha: 0.0001
    beta: 0.75
  }
}
layer {
  name: "conv3"
  type: "Convolution"
  bottom: "norm2"
  top: "conv3"
  param {
    lr_mult: 1
    decay_mult: 1
  }
  param {
    lr_mult: 2
    decay_mult: 0
  }
  convolution_param {
    num_output: 384
    pad: 1
    kernel_size: 3
    weight_filler {
      type: "gaussian"
      std: 0.01
    }
    bias_filler {
      type: "constant"
      value: 0
    }
  }
}
layer {
  name: "relu3"
  type: "ReLU"
  bottom: "conv3"
  top: "conv3"
}
layer {
  name: "conv4"
  type: "Convolution"
  bottom: "conv3"
  top: "conv4"
  param {
    lr_mult: 1
    decay_mult: 1
  }
  param {
    lr_mult: 2
    decay_mult: 0
  }
  convolution_param {
    num_output: 384
    pad: 1
    kernel_size: 3
    group: 2
    weight_filler {
      type: "gaussian"
      std: 0.01
    }
    bias_filler {
      type: "constant"
      value: 1
    }
  }
}
layer {
  name: "relu4"
  type: "ReLU"
  bottom: "conv4"
  top: "conv4"
}
layer {
  name: "conv5"
  type: "Convolution"
  bottom: "conv4"
  top: "conv5"
  param {
    lr_mult: 1
    decay_mult: 1
  }
  param {
    lr_mult: 2
    decay_mult: 0
  }
  convolution_param {
    num_output: 256
    pad: 1
    kernel_size: 3
    group: 2
    weight_filler {
      type: "gaussian"
      std: 0.01
    }
    bias_filler {
      type: "constant"
      value: 1
    }
  }
}
layer {
  name: "relu5"
  type: "ReLU"
  bottom: "conv5"
  top: "conv5"
}
layer {
  name: "pool5"
  type: "Pooling"
  bottom: "conv5"
  top: "pool5"
  pooling_param {
    pool: MAX
    kernel_size: 3
    stride: 2
  }
}
layer {
  name: "fc6"
  type: "InnerProduct"
  bottom: "pool5"
  top: "fc6"
  param {
    lr_mult: 1
    decay_mult: 1
  }
  param {
    lr_mult: 2
    decay_mult: 0
  }
  inner_product_param {
    num_output: 4096
    weight_filler {
      type: "gaussian"
      std: 0.005
    }
    bias_filler {
      type: "constant"
      value: 1
    }
  }
}
layer {
  name: "relu6"
  type: "ReLU"
  bottom: "fc6"
  top: "fc6"
}
layer {
  name: "drop6"
  type: "Dropout"
  bottom: "fc6"
  top: "fc6"
  dropout_param {
    dropout_ratio: 0.5
  }
}
layer {
  name: "fc7"
  type: "InnerProduct"
  bottom: "fc6"
  top: "fc7"
  param {
    lr_mult: 1
    decay_mult: 1
  }
  param {
    lr_mult: 2
    decay_mult: 0
  }
  inner_product_param {
    num_output: 4096
    weight_filler {
      type: "gaussian"
      std: 0.005
    }
    bias_filler {
      type: "constant"
      value: 1
    }
  }
}
layer {
  name: "relu7"
  type: "ReLU"
  bottom: "fc7"
  top: "fc7"
}
layer {
  name: "drop7"
  type: "Dropout"
  bottom: "fc7"
  top: "fc7"
  dropout_param {
    dropout_ratio: 0.5
  }
}
# transform the fc7 layer 
layer {
  name: "fc7_sclice"
  type: "Slice"
  bottom: "fc7"
  top: "fc7_1"
  top: "fc7_2"
  top: "fc7_3"
  top: "fc7_4"
  slice_param {
    axis: 0
    slice_point: 32 
    slice_point: 64
    slice_point: 96
  }
}
layer {
  name: "fc7_all"
  type: "Concat"
  bottom: "fc7_1"
  bottom: "fc7_2"
  bottom: "fc7_3"
  bottom: "fc7_4"
  top: "fc7_all"
  concat_param {
    axis: 1
  }
}
layer {
  name: "fine_fc8"
  type: "InnerProduct"
  bottom: "fc7_all"
  top: "fine_fc8"
  param {
    lr_mult: 1
    decay_mult: 1
  }
  param {
    lr_mult: 2
    decay_mult: 0
  }
  inner_product_param {
    num_output: 54
    weight_filler {
      type: "gaussian"
      std: 0.01
    }
    bias_filler {
      type: "constant"
      value: 0
    }
  }
}
layer {
  name: "multilabel_accuracy"
  type: "MultiLabelAccuracy"
  bottom: "fine_fc8"
  bottom: "label"
  top: "multilabel_accuracy"
}
layer {
  name: "multilabel_loss"
  type: "MultiLabelLoss"
  bottom: "fine_fc8"
  bottom: "label"
  top: "multilabel_loss"
  multilabel_loss_param{
    weight:0.316238
    weight:0.010249
    weight:0.407201
    weight:0.545162
    weight:0.034748
    weight:0.139549
    weight:0.771653
    weight:0.077415
    weight:0.946527
    weight:0.046585
    weight:0.006022
    weight:0.200817
    weight:0.950610
    weight:0.016044
    weight:0.062567
    weight:0.212942
    weight:0.081189
    weight:0.048255
    weight:0.234802
    weight:0.119298
    weight:0.288790
    weight:0.030809
    weight:0.044234
    weight:0.095665
    weight:0.026561
    weight:0.590386
    weight:0.032480
    weight:0.022664
    weight:0.029551
    weight:0.273571
    weight:0.128557
    weight:0.302442
    weight:0.232203
    weight:0.097562
    weight:0.015240
    weight:0.258826
    weight:0.086880
    weight:0.020354
    weight:0.071599
    weight:0.028438
    weight:0.035057
    weight:0.028706
    weight:0.011548
    weight:0.020581
    weight:0.305906
    weight:0.035573
    weight:0.025241
    weight:0.046173
    weight:0.022519
    weight:0.007403
    weight:0.016972
    weight:0.026994
    weight:0.139837
    weight:0.008641
  }
}
